iris-model-api/iris_model.pth (torch, 3046 bytes, 6 tensors)

fc1.weight f4 [8, 4]
0	0xbe86f080	-0.26355362
1	0xbe8bf8ba	-0.273382
2	0x3e99df18	0.3005302
3	0xbea9603c	-0.33081234
4	0xbe70aec0	-0.23504162
5	0x3e8b4282	0.2719918
6	0xbebe5e1a	-0.3718117
7	0x3e7b1964	0.24521405
8	0x3e5f9006	0.21832284
9	0xbe841894	-0.25800002
10	0x3f28d521	0.6595021
11	0x3f5e1ec5	0.867657
12	0x3f22e422	0.63629353
13	0xbec0f14c	-0.37684095
14	0x3e682760	0.2267127
15	0x3f8f8d64	1.1215024
16	0x3f4883fe	0.78326404
17	0x3f1db22e	0.61600006
18	0xbf6b2942	-0.9185983
19	0xbf7e2ff5	-0.99291927
20	0xbee20954	-0.44147742
21	0x3ea9a77a	0.33135587
22	0xbd31b970	-0.043389738
23	0x3eb06166	0.3444931
24	0x3d575ff4	0.052581742
25	0xbe6f6266	-0.2337738
26	0xbee3b168	-0.44471288
27	0x3e11209f	0.141726
28	0xbea44298	-0.32082057
29	0xbde39248	-0.11111885
30	0x3e982fec	0.2972406
31	0xbe8b66de	-0.2722692

fc1.bias f4 [8]
0	0xbcc86160	-0.024460495
1	0xbd8afc30	-0.06786382
2	0xbf0250b3	-0.5090439
3	0x3c7e0483	0.015504005
4	0x3f798212	0.97464097
5	0xbe403b2c	-0.18772572
6	0x3e9d6e6d	0.3074831
7	0xbe2685cc	-0.16261977

fc2.weight f4 [9, 8]
0	0x3e152432	0.14564589
1	0x3e15cffe	0.14630124
2	0x3e5185fd	0.20461269
3	0xbd177b3d	-0.036982764
4	0x3f317a03	0.693268
5	0xbda740a4	-0.08166626
6	0x3e768d01	0.24077226
7	0xbe59247b	-0.21205322
8	0xbd13c5af	-0.036077198
9	0x3e9b3027	0.30310175
10	0xbe9d131e	-0.30678648
11	0x3c5f8eec	0.013644915
12	0xbb972378	-0.0046123825
13	0xbe9ab6ca	-0.30217582
14	0xbd8c4271	-0.0684861
15	0xbea5ed4a	-0.324076
16	0x3d9c71fa	0.07638927
17	0x3d73e291	0.059542242
18	0x3f13fb56	0.57805383
19	0x3c72bf02	0.014816048
20	0xbf5308e9	-0.8243547
21	0xbe0287f2	-0.12747172
22	0xbe691417	-0.2276157
23	0x3e8cd2fa	0.27504712
24	0x3de80a29	0.11330063
25	0xbeb43b9d	-0.3520173
26	0xbed8daca	-0.42354423
27	0xbe711123	-0.23541693
28	0x3f64714f	0.89235395
29	0xbdd3cad9	-0.103414245
30	0x3ec8b1fb	0.39198288
31	0x3ddfbea7	0.10925036
32	0xbea3183f	-0.31854436
33	0x3d984cad	0.074365
34	0x3ea01d62	0.31272417
35	0x3edebd1e	0.4350366
36	0xbfa1eeb8	-1.2650976
37	0xbcd3e1cf	-0.02586451
38	0x3e6f4547	0.23366271
39	0x3e004dea	0.12529722
40	0x3e2a597f	0.16635703
41	0x3e9943aa	0.29934436
42	0x3f2a0878	0.6641917
43	0x3ebf9e97	0.37425682
44	0xbebd064d	-0.3691887
45	0x3cbea071	0.023269864
46	0x3e45c5e9	0.19313778
47	0xbda6fc0d	-0.081535436
48	0x3d3e94d2	0.046528645
49	0x3ba0ff7c	0.0049132686
50	0x3ef4d91b	0.47821888
51	0x3f3a7884	0.7284014
52	0xbea8cc92	-0.32968575
53	0xbe99f6c7	-0.3007109
54	0x3de8b56d	0.11362729
55	0xbdefa19a	-0.11700745
56	0x3d0d8805	0.034553546
57	0xbea424bd	-0.3205928
58	0x3e0fa61d	0.14028211
59	0xbe7845b5	-0.24245341
60	0xbd2437aa	-0.040092148
61	0x3e9b6565	0.30350795
62	0x3dad4195	0.084597744
63	0x3e96eef4	0.29479182
64	0xbe443dc2	-0.19164184
65	0xbea8662f	-0.3289046
66	0xbe90ecf7	-0.2830579
67	0xbdf8017b	-0.121096574
68	0xbde17ac8	-0.11009747
69	0xbcc48c92	-0.02399281
70	0x3e4f061e	0.20217177
71	0x3e9dde6f	0.30833766

fc2.bias f4 [9]
0	0xbc3272ee	-0.010891659
1	0xbe52083c	-0.20510954
2	0xbe973d56	-0.29538983
3	0x3ea02e7c	0.31285465
4	0xbf06c77c	-0.5264814
5	0xbf0452b8	-0.5168872
6	0xbe0efe29	-0.13964142
7	0xbea0deaf	-0.31419894
8	0x3e995a55	0.2995173

out.weight f4 [3, 9]
0	0x3efcaaee	0.4934916
1	0xbdd2b02b	-0.102875076
2	0xbeda6cce	-0.42661136
3	0x3f5d5ded	0.86471444
4	0xbd83dc38	-0.06438488
5	0xbefe327d	-0.49647895
6	0xbf1e6d0a	-0.6188513
7	0x3e951c00	0.29122925
8	0xbd90b896	-0.07066457
9	0xbe816ae6	-0.2527687
10	0xbe811e3a	-0.25218374
11	0x3c8ece98	0.017432496
12	0xbf3e932f	-0.74443334
13	0xbf984512	-1.1896079
14	0x3ed71b5a	0.42013055
15	0x3f2722d8	0.6528754
16	0x3d05eaf6	0.03269478
17	0xbe13f113	-0.14447431
18	0xbf3e72b6	-0.74393785
19	0x3e83e563	0.25760946
20	0x3f7e06e7	0.9922928
21	0xbed3fb1a	-0.41402513
22	0x3f9c46df	1.2209128
23	0x3ee266f2	0.44219166
24	0x3e4a8bd5	0.19779904
25	0xbe9e9ea2	-0.30980402
26	0xbe958b57	-0.2920787

out.bias f4 [3]
0	0x3f57ea48	0.8434186
1	0x3f933776	1.15013
2	0xbf7f0d21	-0.9962941
